…
, 3), activation='relu'))\nmodel.add(MaxPooling2D(pool_size=(2,2)))\nmodel.add(Conv2D(128, (3, 3), activation='relu'))\nmodel.add(MaxPooling2D(pool_size=(2,2)))\nmodel.add(Dropout(0.25))\n \nmodel.add(Flatten())\nmodel.add(Dense(128, activation='relu'))\nmodel.add(Dropout(0.2))\nmodel.add(Dense(35, activation='softmax'))\n\n\nmodel.summary()\n\nModel: \"sequential\"\n_________________________________________________________________\nLayer (type)                 Output Shape              Param #   \n=================================================================\nconv2d (Conv2D)              (None, 32, 32, 32)        320       \n_________________________________________________________________\nmax_pooling2d (MaxPooling2D) (None, 16, 16, 32)        0         \n_________________________________________________________________\nconv2d_1 (Conv2D)            (None, 14, 14, 64)        18496     \n_________________________________________________________________\nmax_pooling2d_1 (MaxPooling2 (None, 7, 7, 64)          0         \n_________________________________________________________________\nconv2d_2 (Conv2D)            (None, 5, 5, 128)         73856     \n_________________________________________________________________\nmax_pooling2d_2 (MaxPooling2 (None, 2, 2, 128)         0         \n_________________________________________________________________\ndropout (Dropout)            (None, 2, 2, 128)         0         \n_________________________________________________________________\nflatten (Flatten)            (None, 512)               0         \n_________________________________________________________________\ndense (Dense)                (None, 128)               65664     \n_________________________________________________________________\ndropout_1 (Dropout)          (None, 128)               0         \n_________________________________________________________________\ndense_1 (Dense)              (None, 35)                4515      \n=================================================================\nTotal params: 162,851\nTrainable params: 162,851\nNon-trainable params: 0\n_________________________________________________________________\n\n\n\nmodel.compile(loss='categorical_crossentropy', optimizer=\"adam\",metrics=['accuracy'])\n\n\nhistory = model.fit(train_X,train_Y, epochs=50, batch_size=32, validation_data = (va
…
